hw1/model.npy (npy, 584 bytes, 1 tensors)

array f8 [63]
00000000: 8d5b f936 b696 953f 4194 d423 201f 8ebf
00000010: 4b7a 1f98 2ca2 85bf 3b0e 96f2 ed90 8abf
00000020: 06b2 513f 1590 9c3f b7c6 a2f7 5543 9b3f
00000030: b8c8 e948 054b 7ebf 14a2 bda5 1dd7 bd3f
00000040: 3a71 4356 4a51 d23f 9afa 936f a556 7b3f
00000050: c0fd 582e 0f9d 81bf 6dcd 927f 7886 85bf
00000060: 040c 9e4a 142b 943f 0b59 0cd4 8e69 76bf
00000070: f176 fcc9 428b adbf 0ebc c2c8 3724 93bf
00000080: 0f8a 0ce2 a4bb c33f 94df 6f32 3c94 95bf
00000090: 5247 9f20 a9a0 a0bf 1f28 8aee 131d 9a3f
000000a0: 392d 9307 9846 bd3f 8aef 2a55 1c72 a0bf
000000b0: 3235 83fd c32a 9cbf 5e12 213e 3d0d 53bf
000000c0: 28ce 7cdf fcde b93f 9969 2586 2caa 76bf
000000d0: 769f 55b5 8987 723f 9c60 cd88 7632 7c3f
000000e0: 09df f529 4cb7 363f 312d 30df 1380 97bf
000000f0: accb 642e 4c93 a13f 6d75 1c88 3238 96bf
00000100: 2904 d3e3 7af8 973f cf7f 5544 1e51 b33f
00000110: 3470 ab9b affe 27bf 66da add7 59a5 2f3f
00000120: 11c5 03f5 6628 40bf f299 3f60 506b 193f
00000130: 62c8 9bb9 22c6 88bf c59c 43cb 1635 683f
00000140: 8e00 cf90 0f60 b93f 0450 0d83 9624 bfbf
00000150: cb26 72ab c03f 8c3f dd25 978c ae17 c13f
00000160: 9ca7 dfef b0d6 c4bf 8890 2537 7b0b bf3f
00000170: fafd f3f2 cd62 e43f 9d11 175d 76ec 683f
00000180: b950 0384 84ca 71bf 46ba fe97 ca47 4bbf
00000190: 8b29 3dd5 a714 6e3f cf8f 4810 3caf a63f
000001a0: 51ce 34fb 0b33 673f 36b4 28c1 5239 a9bf
000001b0: 76e9 3800 fb31 b6bf 046a d6e7 d54f 50bf
000001c0: 44d2 20d2 7695 8bbf c096 d933 74f0 5d3f
000001d0: f6d6 83a0 d0ab 6dbf 08ee a5dc cf16 653f
000001e0: a577 95a0 817d 69bf 65a3 63f7 37ec 44bf
000001f0: f2fa f9e1 337c 573f
0.021082732301092078 -0.014707804768997803 -0.01056322898142272 -0.012971743550912787 0.027893383016293093 0.026624053229801627 -0.007395764011208943 0.1165636567726625
0.28621157097019856 0.006674429162784401 -0.008600348092953847 -0.01051038874934448 0.019695584348948372 -0.005471761630152959 -0.05770310130740864 -0.018692847851237863
0.1541639426951211 -0.021073284700804232 -0.03247574351520534 0.025501548227602307 0.11435842690405175 -0.032120595356416606 -0.02750688776796046 -0.0011628244469800357
0.10105877357710169 -0.005533384248645489 0.004523790286249487 0.0068840627908103545 0.00034661874266060704 -0.02294951486332514 0.03432691637353655 -0.021698751027647335
0.023408813624659217 0.07545651596365065 -0.0001830663075769193 0.00024143907270586794 -0.0004930975647125265 9.696653438560196e-05 -0.012096663750956253 0.002955002326519104
0.09912202153555169 -0.12165203761588833 0.013793473465074332 0.1335352121807735 -0.16280185425358418 0.12126894089084506 0.6370610947778339 0.0030424415387832597
-0.004343526496274724 -0.0008325328089904902 0.0036719587314212924 0.044305684077954426 0.0028319581994311967 -0.04926546676538417 -0.08670014148166225 -0.000995596782877529
-0.013468673980335251 0.0018273482122820733 -0.003621966814644102 0.0025743541529530435 -0.0031116039069009776 -0.0006385110162031414 0.0014334208171075638
